resources/models/11/model.pt (torch, 224059 bytes, 8 tensors)

conv1.weight f4 [50, 1, 5, 5]
000000 d6 f4 03 bf 5e 94 9d 3e bd 2d e1 3e 49 a7 a0 3e
       -0.51545465 0.30777258 0.43980208 0.31377628
000010 0e 2d 76 3e 8e 35 6b bf 30 98 e7 bd 20 26 29 3e
       0.24040624 -0.9187859 -0.11308324 0.1651845
000020 8f 28 87 3e b5 95 47 3e 2d dd 91 bf 76 84 07 be
       0.2639813 0.19490702 -1.1395622 -0.13234124
000030 89 fb 44 3e f2 7a 41 3c 92 49 8a 3e 59 dc 08 bf
       0.19236578 0.011809098 0.27009255 -0.53461224
000040 49 f7 f0 3e cf 73 1e 3e 95 d1 8f 3d 3b 8c 99 bc
       0.47063664 0.15473865 0.070223965 -0.018743625
000050 38 51 1b be 27 53 12 bf 9c 70 79 bf f8 32 74 bf
       -0.15167701 -0.5715813 -0.97437453 -0.9539027
000060 b7 f2 26 bf 7c 9a 4f 3e 0d 0b 08 3e 41 56 6a bc
       -0.65214103 0.20273775 0.13285466 -0.014302791
000070 f5 75 3b be a1 89 68 3e 5e ce 57 3e 2d 95 bc 3e
       -0.18306716 0.22708751 0.21074817 0.36832562
000080 55 78 9d 3e 4a 37 9d 3e 4d 71 da 3e c0 21 61 bf
       0.3075587 0.30706245 0.42664567 -0.87942123
000090 22 6a d4 be 8e e2 dc be b1 50 bc be 8d b6 d2 be
       -0.41487223 -0.43141598 -0.36780313 -0.411549
0000a0 41 d1 fc be 40 ab 4b be 23 dc 9f be 1b 00 a3 bd
       -0.49378398 -0.19889545 -0.31222638 -0.079590045
0000b0 4e 6e 56 bf f5 b6 2e 3c fd 54 03 3e 02 56 a7 3e
       -0.8376206 0.010663738 0.12825389 0.32682806
0000c0 fc 89 07 3f d6 38 75 be 91 dd 34 3e 82 ac a7 3d
       0.5294492 -0.23947462 0.17662646 0.081872
0000d0 07 72 c9 3d 8d 81 c9 bd 7f 6e 22 3e ac 15 46 3d
       0.09836202 -0.09839163 0.15862463 0.04836051
0000e0 16 70 f4 3d e0 40 a6 3d 1b 14 2b be d5 4d 02 be
       0.11935441 0.08117843 -0.16706888 -0.12725003
0000f0 2e 31 b8 3e a6 15 83 3e 52 e5 86 3e 22 da 70 3d
       0.3597502 0.25602454 0.26346833 0.058801778
000100 a7 c2 37 bc 11 d4 93 3e 0a 5c 90 3d 2c 42 aa 3e
       -0.011215842 0.2887273 0.07048805 0.3325361
000110 bc ed 68 3e 9b 19 05 3f 8a c7 ec be 17 7e 23 bf
       0.22746938 0.51992196 -0.46245986 -0.6386427
000120 d2 cd fb be e0 cf 21 bf e2 94 12 bf 08 c1 c9 3e
       -0.49180466 -0.6320782 -0.5725843 0.39405084
000130 e5 e3 cd 3e 90 bb 81 3e 3b dc f9 be 75 0b b1 bf
       0.40212932 0.2533841 -0.48800835 -1.3831621
000140 cf 8a 58 3e f5 63 c3 3e df 84 1f 3e 4e e6 a4 bd
       0.21146701 0.381622 0.1557803 -0.0805174
000150 22 c0 7a bf f4 31 70 3e a1 ea 9d 3d 2f e1 af 3e
       -0.9794942 0.23456556 0.077107675 0.3435149
000160 0a a6 8f 3e 9d 41 02 bf 65 f9 83 be de 80 85 be
       0.28056365 -0.5088137 -0.2577621 -0.2607488
000170 88 a3 06 bd 64 3e cd 3e 34 47 79 be ef 52 65 bf
       -0.0328708 0.40086663 -0.24343568 -0.8957967
000180 73 d4 a9 bf 51 24 39 bf 5c e9 70 bd 4b d0 f5 be
       -1.3267959 -0.7232104 -0.0588163 -0.48010477
000190 4f 82 70 be 70 90 14 bf 09 ab 02 bf e5 74 45 be
       -0.23487209 -0.58032894 -0.5104223 -0.19282873
0001a0 71 1f 27 bf 7e 77 c8 3e 36 9a d2 be 92 c9 0b bf
       -0.6528235 0.39153665 -0.4113328 -0.54604447
0001b0 3a ba 0d 3e 09 b8 5b be cf bc fa 3e 93 02 c3 3d
       0.13840571 -0.21456923 0.48972175 0.09521975
0001c0 90 7c 90 be db 0c 40 3d b4 e7 25 be 25 a0 64 3e
       -0.28220034 0.04688726 -0.16201669 0.22326715
0001d0 cb fd 35 3e 8d df 64 be 86 d4 b1 be be 70 05 bd
       0.17772596 -0.22350903 -0.34732455 -0.032578222
0001e0 4f 63 26 bd 82 53 54 3e c5 ae eb be f1 47 a9 be
       -0.04062205 0.2073498 -0.46031776 -0.330627
0001f0 fc 9f 0e bf da 42 69 bf d2 61 26 bf bc a2 e5 be
       -0.55712867 -0.9111763 -0.6499301 -0.4485072
000200 44 2c 4c bd dd 11 94 3e fb 40 02 bf f3 f2 4a bf
       -0.049846902 0.2891988 -0.508804 -0.7927696
000210 62 6a 26 bf d6 88 b9 be a5 2e ac be 79 8e dd 3d
       -0.6500608 -0.3623721 -0.33629337 0.1081819
000220 3b b8 12 3e bd 27 04 3e 2b d2 10 be 53 c3 35 bf
       0.14328091 0.12905784 -0.14142673 -0.71001166
000230 89 62 d4 3d cc 50 06 3e a0 38 01 3f 84 06 f5 bc
       0.103703566 0.13116759 0.5047703 -0.029910333
000240 31 ef 90 bf 60 55 24 3d fc 55 15 3e 4b 73 d6 3e
       -1.1322995 0.040120482 0.14583582 0.41884837
000250 57 93 40 3e c5 e1 c0 bf fe 44 2f bf 86 05 3f be
       0.18806206 -1.5068899 -0.6846465 -0.18654451
000260 27 e2 ea be 5a b9 06 bd c7 2c a6 3e 24 ba 29 bf
       -0.45875666 -0.03289161 0.32456037 -0.66299653
000270 41 d7 d0 bc cf 17 2d 3d 53 99 7d be bb b0 39 bd
       -0.025493266 0.042259034 -0.2476552 -0.04533456
000280 f7 fd e1 be ae 54 01 3f b2 94 26 3e 03 92 b5 be
       -0.44139072 0.50519836 0.1626766 -0.3546296
000290 f8 2d cc bd 4b 82 b1 be 30 ba 17 3f ac 8a a6 3e
       -0.09969705 -0.34669718 0.59268475 0.32527673
0002a0 4d 48 be be 5b ce 36 bd 8e c0 12 bf e5 a5 dd 3e
       -0.37164536 -0.04463039 -0.57325065 0.4329063
0002b0 8f 65 bb bd b8 2a 2c bf 0b d3 09 bf bc f1 05 bd
       -0.0915023 -0.67252684 -0.5383765 -0.03270124
0002c0 52 d7 cf 3c 28 bd 1d 3d 57 c9 57 be 85 e5 8a 3d
       0.025371227 0.03851047 -0.21072899 0.067820586
0002d0 1d e2 09 3d c8 e6 39 be e7 92 44 3b 09 5c 5f bd
       0.033662904 -0.18154442 0.0029994787 -0.05453113
0002e0 1d 7f 02 bd 0c bb 04 3d ae 84 59 be 0f 4d cc 3d
       -0.031859506 0.032404944 -0.2124202 0.09975635
0002f0 89 cc ec bd 6c 84 02 be 39 99 99 be 24 4a 5f 3c
       -0.115624495 -0.12745827 -0.29999712 0.013628516
000300 72 80 b7 bd 4a 3b e0 bd 3a 6b 07 3e f4 56 4f 3c
       -0.08960046 -0.109488085 0.13224497 0.012655009
000310 5e af 6b bc 59 9d 16 bd 87 b7 b1 bd b6 d6 8f bd
       -0.0143850725 -0.036771152 -0.08677583 -0.07023375
000320 c5 ca f8 bd 07 68 fc bd 1b da 22 bf dc d5 8a 3e
       -0.1214805 -0.12324529 -0.6361405 0.27116287
000330 c6 9a 4d 3e 8e be fa 3d ec 23 3c be 74 4b 1c bf
       0.20078573 0.12243377 -0.18373078 -0.6105263
000340 ce 2d 62 3d a0 85 2e 3e 34 fe 0a 3e 1f 2f 8c 3e
       0.055219464 0.17043161 0.13573533 0.273797
000350 4f 07 0d bf b0 af 94 3d 1c c4 68 3e ee c8 16 3e
       -0.5508928 0.07260072 0.2273106 0.14725086
000360 9d 31 78 3e 2d e3 f3 be e4 e9 14 be fc 46 b0 3e
       0.24237676 -0.4763426 -0.14542347 0.34429157
000370 77 4f 54 3e bf 35 a5 3e bc 1e 22 bf f5 ec 01 bf
       0.20733438 0.32267568 -0.63328147 -0.5075219
000380 47 27 e6 3d cf ac 40 be 2f b2 cb bd f7 06 c6 3e
       0.1123796 -0.18815921 -0.09946095 0.3867719
000390 2d 37 46 3e 82 e8 b2 3e 4f 9d f8 3d d8 30 cf 3d
       0.19356985 0.34943014 0.12139379 0.10116738
0003a0 5f cf 4b 3e 80 20 da 3d df d8 1f be 4e 24 3a be
       0.19903325 0.1065073 -0.15610074 -0.18177912
0003b0 24 57 e7 be d8 bf 3a be 12 0a c0 bc b0 ee c0 3d
       -0.4518367 -0.18237245 -0.023442302 0.09420526
0003c0 21 a6 b2 be 15 45 50 be e5 18 60 bb 49 6a dd 3d
       -0.3489237 -0.20338853 -0.0034194526 0.10811288
0003d0 5a 58 54 3e 19 87 9c be 07 46 21 bf a2 09 c4 be
       0.20736828 -0.3057182 -0.6299748 -0.382886
0003e0 82 6f 8c 3e 49 88 7f 3e 44 12 b9 be 7a 81 22 be
       0.27428824 0.24954332 -0.36146748 -0.15869704
0003f0 18 2c 38 bf 06 ee b5 bf a4 88 72 bf 19 97 0a bf
       -0.7194228 -1.4213264 -0.9473975 -0.54136807

conv1.bias f4 [50]
000000 a1 0d eb 3d 14 bd 44 be 98 b6 0a bf 9a ab f9 3e
       0.11477209 -0.19212753 -0.54184866 0.48763734
000010 78 78 e3 3e 1b 00 1c 3f 9d 84 20 3f 73 a1 61 be
       0.44427848 0.6093766 0.6270235 -0.22034244
000020 39 70 dd be 53 3b e4 be f5 ab ca 3e dd 20 5b be
       -0.43249682 -0.4457651 0.39584318 -0.21399255
000030 44 99 ec be 34 fe 85 be fd 99 33 3e 3a fd e9 be
       -0.46210682 -0.26170504 0.1753921 -0.4570101
000040 85 f8 38 3f aa 81 51 bd 15 48 e8 3e 76 8f 0d bf
       0.7225421 -0.051149048 0.45367494 -0.5529703
000050 86 2f 6d be 63 13 fb be d1 27 cd be b8 c7 ea be
       -0.2316266 -0.49038228 -0.4006944 -0.45855498
000060 60 6e db 3e 7a 2b cb be 70 35 9f 3c aa 0a 14 3f
       0.42857647 -0.39681607 0.01943466 0.5782877
000070 2c 33 2c be 8b 3d b5 3d f2 73 53 be 74 35 ff be
       -0.16816396 0.08849629 -0.20649698 -0.4984547
000080 55 fb 26 3e 49 e5 44 be 23 09 85 be 95 c0 1a bf
       0.16306813 -0.1922809 -0.25983533 -0.60450107
000090 3d 20 c5 be 6f 72 b6 be c5 19 a7 3e fe 39 2b be
       -0.38501158 -0.3563418 0.32636848 -0.16721341
0000a0 ad 0c a8 be f2 82 10 bf 5b 6a 82 be 4d 99 c7 be
       -0.3282217 -0.56449807 -0.25471768 -0.38984147
0000b0 50 1e a2 3d eb eb b2 be 19 a8 bf be 51 4d e5 be
       0.07915938 -0.34945616 -0.37432936 -0.4478555
0000c0 22 d1 0a bf 5a a6 c2 be
       -0.5422536 -0.3801754

conv2.weight f4 [20, 50, 5, 5]
000000 82 1c 9f bc ab c7 3b 3c 3d 82 2a 3b 1f 59 af bc
       -0.019422773 0.011461179 0.002601757 -0.021404801
000010 44 1b 33 bc 3a d8 8b 3c 2a fd 19 3c 80 b6 e7 3b
       -0.010931794 0.017070878 0.009398738 0.0070713162
000020 71 c7 fe bc 11 e8 30 3b 18 0d 03 bc d1 b1 d4 bc
       -0.03110096 0.002699379 -0.007998727 -0.025963696
000030 65 ca b8 bc 82 e1 aa bc 40 83 1d bc 6d 66 bc bb
       -0.022557447 -0.020859484 -0.009613812 -0.005749515
000040 53 bb e1 3a bc 63 cf bb 0f 76 3e 3c e6 b9 9f bc
       0.0017221965 -0.006329028 0.011624827 -0.019497823
000050 77 35 27 3c 69 c6 04 3c 4d e1 be bc af 36 9a 3c
       0.010205618 0.008103945 -0.023300791 0.018824903
000060 38 d1 5d bc 84 30 87 bc ac 14 aa bc cf 0a eb bb
       -0.013538651 -0.016502626 -0.02076181 -0.0071729193
000070 48 c1 41 bc 70 36 b3 3c ea 78 a7 3c 9f 2a 35 bc
       -0.011825867 0.021876544 0.020443399 -0.011057525
000080 d3 ef de bb 72 f8 9c bc 1d b9 b8 bc 23 34 07 bd
       -0.0068034916 -0.019161437 -0.022549206 -0.033008706
000090 fa 1d 85 bc 92 3b 9f 3c c5 18 11 bd 3e 5c 3a bd
       -0.016249646 0.019437585 -0.035424013 -0.045498125
0000a0 94 c1 f3 3b 49 7c ee bc 1f d7 7b 3c 35 47 70 bd
       0.007438848 -0.029111998 0.015371113 -0.05866166
0000b0 26 a8 af 3c c7 86 19 bc d4 3f a6 3c f1 06 05 bd
       0.021442484 -0.009370512 0.020294107 -0.032477323
0000c0 e9 4b 34 bc db 90 3d bc 1d 9c e3 38 10 20 0c bd
       -0.0110044265 -0.011570181 0.00010853282 -0.034210265
0000d0 7b 20 9e bc ea 1e 3c 3c 7a b2 f1 bc 05 27 05 bb
       -0.019302597 0.01148198 -0.02950405 -0.0020317447
0000e0 dd e5 38 bc ad 16 7f bc 91 35 8f b9 b9 70 02 bd
       -0.011285272 -0.015569371 -0.00027314996 -0.031845782
0000f0 ba 33 f9 bc 80 b8 0a bd b1 5b c1 bc af 35 a1 bc
       -0.030420173 -0.03386736 -0.023603292 -0.019678919
000100 d1 38 80 bd 9c ca c4 bc 1f 67 b4 3c 25 c8 53 bd
       -0.06260837 -0.024022393 0.022021828 -0.051704545
000110 fa 04 f3 bc 96 43 5b bc 48 27 88 3c 20 f4 26 39
       -0.029665459 -0.013382813 0.016620293 0.00015921937
000120 fb 61 28 bd 98 8e c5 bc 07 b4 5f bd 1c 7c 80 bc
       -0.041109066 -0.024115846 -0.054615047 -0.01568418
000130 84 db e2 3c 6f fa 8d bc 3a ca d2 bc 1b 08 9d 3c
       0.027692564 -0.01733133 -0.025731195 0.019168904
000140 34 ed c1 3b 94 e6 c1 3c e6 b4 3c bc cc 7a 6b bc
       0.0059181694 0.023669519 -0.011517739 -0.014372539
000150 c5 ac 4f 3b 61 57 be bc 73 af a1 bb 72 86 07 bd
       0.0031688672 -0.023235025 -0.0049342453 -0.0330872
000160 9d 97 34 bc 37 4a 4b bb 1a 56 6c bb 60 ac 2d ba
       -0.011022476 -0.0031019577 -0.0036062063 -0.0006625112
000170 d4 f7 ee bc 6f e3 14 3c 9a 99 b6 bc 77 9a cb bc
       -0.029170908 0.0090874275 -0.02229004 -0.024853928
000180 98 8e 81 bc ac 18 d8 3c 06 cf 4f bb 83 f3 ad bc
       -0.015815064 0.026378952 -0.003170909 -0.02123428
000190 e5 42 54 3b 16 48 8a bc 74 fb 3e bc be 60 fb 3b
       0.0032388505 -0.016880076 -0.011656631 0.0076714447
0001a0 28 d7 b4 3b 76 9a 9a 3b 08 98 e3 3c 01 92 66 bc
       0.0055188127 0.00471812 0.027782455 -0.014072896
0001b0 1b 63 46 bb d4 19 d5 bc ad b8 52 bb 0b 0f f0 3a
       -0.0030271474 -0.026013292 -0.0032153532 0.001831503
0001c0 d0 60 67 3c 0e 69 3d bc 15 eb a2 3c b4 42 82 3c
       0.014122203 -0.0115606915 0.019887486 0.015900947
0001d0 ed cb 7a bc 40 5e 23 bc 25 d5 94 bc 67 f3 67 ba
       -0.015307409 -0.009971201 -0.018168041 -0.00088482205
0001e0 00 0c b6 bc 7f 21 ae bc 88 b7 b4 bb 29 42 bf bb
       -0.022222519 -0.021256207 -0.0055150427 -0.0058367443
0001f0 02 83 95 bc ba f5 b3 bb 18 26 63 3c 40 8a 8d bc
       -0.018250946 -0.0054919394 0.013864063 -0.017277837
000200 1a 60 01 bd fa de ae bc b6 59 8e 3b 42 fa 05 bc
       -0.03158579 -0.021346558 0.0043441905 -0.008177342
000210 38 28 5b 3c 95 e3 da bc 1f c0 ca bc 2b 71 09 3a
       0.013376288 -0.026719848 -0.024749814 0.00052429986
000220 58 da 8b bb 36 b9 e1 3c 11 24 15 3c 71 6b a8 bc
       -0.004267972 0.027554136 0.009102837 -0.020559045
000230 19 87 ef bc ca b8 20 ba 3c 24 8b 3c fb 8d 56 bc
       -0.029239224 -0.00061310513 0.016985051 -0.013095374
000240 f6 c0 cf bc 53 c9 55 bc de ef 0e bc dc 48 b5 bb
       -0.025360566 -0.013048488 -0.008724181 -0.005532367
000250 e4 9a ad bc 79 0e 22 3b ce 88 a5 bc 40 32 eb 39
       -0.021192022 0.0024727865 -0.020206835 0.00044860132
000260 98 03 45 bc 14 05 e6 3c 04 c7 38 3c 96 0a 6d bc
       -0.012024783 0.028078593 0.011277918 -0.014467856
000270 9c 55 28 3c f1 29 c2 bc d6 4d 35 bc a0 af 50 3c
       0.010274317 -0.02370164 -0.011065921 0.012737185
000280 10 d8 36 bc 8c 29 a6 bc 5d 93 dd bc f8 0e 81 3b
       -0.011159912 -0.020283483 -0.027047807 0.003938552
000290 52 54 a5 3c c8 5f d9 3c 4a e2 cd 3c 10 b8 39 3b
       0.020181809 0.02653493 0.025132317 0.002833847
0002a0 30 be 25 3b 1c fa 92 3c 80 4e ec b9 b4 0d 73 bc
       0.0025290363 0.017941527 -0.00045071915 -0.01483481
0002b0 8e ac b0 3c c1 b2 04 bc 90 e0 24 3b ce fa d4 bb
       0.021566655 -0.008099259 0.0025158264 -0.006499625
0002c0 57 f3 7c 3b 8d 10 44 bb 54 bb a2 ba 2d 3b 2c bd
       0.003859719 -0.0029917092 -0.0012415447 -0.042048622
0002d0 9d 64 1d bd 43 35 b4 bc 62 82 fc bb c8 be e5 bb
       -0.03842603 -0.021998053 -0.0077059725 -0.0070112683
0002e0 b8 83 50 bc e4 09 e2 bc d5 95 e8 bc f1 21 b4 3a
       -0.012726717 -0.027592607 -0.028391758 0.0013743025
0002f0 55 14 1f 3b 1b 12 84 ba c4 cd c3 bc af 34 11 bd
       0.0024273593 -0.0010076197 -0.023901828 -0.035450634
000300 3b 6e 2f bd be 3b 51 bc 71 4b 36 bd cf 09 16 bd
       -0.042829733 -0.012770591 -0.04450554 -0.036630448
000310 62 55 44 bd e3 a3 87 bb 21 2d 35 bd 89 6a f7 bc
       -0.04793299 -0.00413941 -0.04423249 -0.030202167
000320 b0 71 99 3c e6 21 52 3b 2c fa 37 bc 7c b5 dc bc
       0.018730968 0.0032063662 -0.011229079 -0.026942007
000330 65 a0 08 bc e2 55 c5 bc c0 11 d9 bc 19 e4 ae 3c
       -0.008339022 -0.024088804 -0.026497722 0.021349
000340 7d 44 77 3b 9c a1 d9 bc c6 c9 77 3c 0d e2 95 bc
       0.0037730031 -0.02656632 0.01512379 -0.018296266
000350 00 8f 50 bc e9 12 9d bc 8a b2 10 bc ee 6d ec 3b
       -0.012729406 -0.019174056 -0.0088316295 0.007215253
000360 db 52 47 bd f9 03 84 bd 82 70 34 bd b1 fb 19 3a
       -0.048663 -0.0644607 -0.04405261 0.0005873992
000370 f8 83 b1 bb 19 1a 88 bc 95 43 10 3b 39 ad 20 bd
       -0.005417343 -0.016614007 0.0022012938 -0.039227698
000380 9a 4a be bc af 66 f1 3b 53 2c a0 bc d3 ac c6 bc
       -0.023228932 0.007366977 -0.019552385 -0.02425233
000390 d5 6d a4 bc 5e 97 cd bc 57 d3 a5 3c 68 fc e7 bb
       -0.020071903 -0.025096592 0.020242376 -0.0070796497
0003a0 9f 5d b4 bb d0 7a 9b 3c b6 9a 50 bc 5c 3c f8 bc
       -0.0055043246 0.01897946 -0.012732198 -0.03030222
0003b0 fc b5 23 bd 42 c3 ec bc 44 8d c0 bc 5e 39 51 bd
       -0.039968476 -0.0289017 -0.02350486 -0.0510801
0003c0 05 d5 02 bd 72 94 48 bc ee 10 db bc 20 f8 81 bd
       -0.031941433 -0.012242423 -0.026741471 -0.06346154
0003d0 4b 7d cf bb 26 2c fe bc 98 9a 4d bc 70 28 4a bd
       -0.0063320748 -0.031026911 -0.012549065 -0.04935497
0003e0 ee 6e b2 bb 49 9f 6c bd ec 09 bc 39 9a 98 1f bc
       -0.0054453528 -0.057769094 0.00035865547 -0.009740973
0003f0 3c df c2 bc a9 bb 90 bc 20 a5 98 bb a3 02 31 bc
       -0.023788087 -0.017667608 -0.0046583563 -0.010803851

conv2.bias f4 [20]
000000 2d ed 8e bd 5d b0 16 bf d0 a8 5c bd f8 30 49 bd
       -0.069788314 -0.5886286 -0.05387193 -0.049118966
000010 ea 2d a0 3e b4 86 99 3e f3 8d 35 be 50 f4 83 bf
       0.3128503 0.29985583 -0.1772993 -1.0308933
000020 10 8b f8 3c c0 4a 91 bd de e6 c6 bc df 5a 05 bd
       0.030339748 -0.070943356 -0.024280008 -0.032557365
000030 49 25 71 bd 5b fb 82 be 3c 91 05 bc 48 70 8c bd
       -0.05887345 -0.25582394 -0.008152302 -0.068573534
000040 44 a7 c5 3d d8 28 d2 be 0b 44 43 bd 61 5f d6 bb
       0.09651044 -0.41046786 -0.047672313 -0.006542132

fc1.weight f4 [500, 20]
000000 3f 89 f8 bd ab 6c a4 be d6 82 a9 3d 35 4a 00 be
       -0.121355526 -0.32114157 0.08276908 -0.12528308
000010 f0 ee fc 3c 53 e6 d0 be 98 80 92 3e 63 57 0b 3d
       0.030875653 -0.40800723 0.28613734 0.034018885
000020 cc 3a c7 3d 3d 11 44 be 29 52 8c bd df 0f 48 3e
       0.097280115 -0.19147201 -0.06851608 0.19537304
000030 9c 8b 4e 3d c2 b9 e3 3e 35 e2 3c be 63 fb 9c 3d
       0.05042611 0.4447766 -0.18445666 0.07665136
000040 8f 39 36 bf 2b cb 8c 3d 71 9f 29 be 94 bc 24 be
       -0.7118158 0.06874689 -0.16564728 -0.16087562
000050 cf 9e 09 be c4 17 bf bd fa 50 f5 3c fd aa 1e be
       -0.13439487 -0.09330705 0.02994584 -0.15494914
000060 ac 25 0b 3e a2 66 0c 3d 1c ba bd 3e c3 1c 36 bc
       0.1358859 0.034277566 0.37056053 -0.011115256
000070 73 0b c5 3e 64 bc 4c 3e 8f e3 42 be 00 5d 8e 3d
       0.38485298 0.1999374 -0.19032119 0.06951332
000080 98 91 e9 3d aa 43 4b be 52 de 01 3c 67 df 02 3e
       0.11404723 -0.1985003 0.00792654 0.12780534
000090 0c e5 2d 3d c6 fc 28 bf bf 9f d0 ba 5c 7f 19 bc
       0.042454764 -0.660107 -0.0015916749 -0.009368744
0000a0 e8 2c 8c bd 2b ac d9 bd 2c 21 48 3e d6 d9 30 3e
       -0.06844503 -0.106285416 0.19543904 0.17270598
0000b0 d6 f9 c5 bd b4 71 c3 3d fc 4f 4f be 71 5d df bd
       -0.09666793 0.095431715 -0.20245355 -0.109064944
0000c0 ae 98 0f be 98 da 6d 3d 26 f4 55 be 60 ba d2 3d
       -0.14023086 0.058069795 -0.20893916 0.102894545
0000d0 20 39 bf bb 01 5b cc bd a0 23 f6 3c 27 88 ff bd
       -0.0058356673 -0.09978295 0.030046284 -0.12477141
0000e0 3a 87 46 be be 8a bb bd 10 42 4a be e6 73 55 3e
       -0.19387522 -0.09157322 -0.19751763 0.20844993
0000f0 af bf a9 3d 03 eb 22 3e 01 16 05 3e 16 c3 21 3e
       0.08288514 0.15909962 0.12996675 0.15797076
000100 6a ea 03 3f 74 ee 81 bd 23 30 05 bf 29 db b6 3e
       0.5152956 -0.063443094 -0.52026576 0.3571408
000110 ee 5f 59 be cc c7 dc 3d 13 eb 07 be 15 d6 08 be
       -0.21228 0.10780296 -0.13273267 -0.13362916
000120 86 a4 da bd ab 9f 8d be 88 72 e2 bc c9 8c ea bd
       -0.106759116 -0.2766088 -0.027642503 -0.11452634
000130 a3 1a 4b be 12 6b cc 3e a1 05 7e 3d 49 d8 42 3e
       -0.1983438 0.39925438 0.062017087 0.19027819
000140 09 e7 37 be f2 4d 12 be c5 c8 83 3e ff 29 0d be
       -0.17959227 -0.14287546 0.25739112 -0.13785551
000150 7e ba 08 3c cb 4e 62 3f 2c 22 31 bf da d2 03 3e
       0.008345244 0.8840148 -0.6919277 0.12873402
000160 22 59 b3 3e 8f d1 58 bd 4f 5e 7e 3c ef 48 74 ba
       0.3502894 -0.052934226 0.015525415 -0.0009318729
000170 13 65 de 3c fa cb f3 3d 15 9c 6a 3e b8 73 2a 3e
       0.027147805 0.1190414 0.22911103 0.16645706
000180 86 e9 c1 be 87 c6 3c be b6 0e 6d be fa 97 20 3e
       -0.37873477 -0.18435107 -0.23150143 0.15682974
000190 60 19 ea 3c 2a d6 31 3d 40 c5 51 be ed 17 9f bc
       0.028576553 0.043417133 -0.20485401 -0.019420588
0001a0 fc 03 85 be 96 3c df be f6 1b 78 bd a9 f0 b9 3e
       -0.25979602 -0.4360091 -0.06057354 0.36316422
0001b0 3f 32 94 3d 70 5b 90 3d 56 8d 1e be 50 f5 9d 3d
       0.07236146 0.0704869 -0.15483603 0.07712805
0001c0 a4 01 15 be 70 ad 0e 3c 04 05 57 3e e5 25 ca bd
       -0.14551407 0.008708343 0.20998007 -0.09870509
0001d0 4f cc 8a be 4f 46 9a be a3 a3 71 3d 55 fa d4 3c
       -0.27109 -0.30131766 0.058993947 0.025998274
0001e0 4d 7d d5 bc 43 ba 87 be f2 46 26 bb 66 25 15 3d
       -0.026060725 -0.26509294 -0.0025371877 0.03641262
0001f0 2f cf 81 bd 0c 29 1f bf 74 d9 26 3e c7 11 df 3e
       -0.06338345 -0.6217201 0.1629389 0.4356825
000200 a8 08 72 3e 5c 8a 9e bc de 2c 22 be 80 b1 65 3e
       0.23636115 -0.019353084 -0.15837428 0.22430992
000210 7d f4 5d 3e 65 58 91 3e 22 d6 4f 3e 2f b3 af bd
       0.21675296 0.28387752 0.20296529 -0.085790984
000220 8f 5c 85 3d 19 71 b7 be d4 5c 48 3e 19 13 02 3e
       0.06511795 -0.35828474 0.19566661 0.12702598
000230 af bc 34 3e 93 51 92 3e 2c 10 81 be 55 d3 97 3d
       0.17650102 0.2857786 -0.2520765 0.07413355
000240 23 34 57 be f6 cd 51 be 73 93 3b 3e 6d d2 b6 3e
       -0.21015982 -0.20488724 0.18317966 0.35707417
000250 c4 f7 d1 be cd 91 10 be bf 26 e1 ba 45 2d f9 3d
       -0.41009343 -0.14118119 -0.0017177685 0.121668376
000260 51 5d 29 3e 15 55 84 be 09 3b da bd 3b 67 a2 bd
       0.16539504 -0.25846162 -0.10655791 -0.07929846
000270 e1 95 1d be a0 7c fe 3d f9 30 14 be e4 db 36 3e
       -0.15389206 0.12426114 -0.14471807 0.17857319
000280 ac 42 52 bd ca 64 07 bf 2a 5a 0e be b6 32 36 be
       -0.051333115 -0.52888167 -0.13901582 -0.17792782
000290 88 6e 38 3e 66 43 76 3e 49 3c a7 3e 1d 7f 2e be
       0.18010914 0.24049148 0.3266318 -0.17040677
0002a0 00 a9 18 bd c0 5b 42 be 31 5c 5e bb f9 5d d1 bc
       -0.037270546 -0.18980312 -0.0033929462 -0.025557505
0002b0 66 5e 08 3e 38 61 96 3e 4c fa e6 bd a4 12 c0 bc
       0.1331726 0.29371047 -0.11278209 -0.023446389
0002c0 7c 01 30 3e 38 44 ed bd 35 64 f8 3d 2d 3a 1b 3e
       0.17188066 -0.11585277 0.12128488 0.15158911
0002d0 69 8d 1b be f4 f2 63 3e f0 23 da 3b c9 1c b2 bd
       -0.15190662 0.22260648 0.006657116 -0.086968966
0002e0 2f 55 a4 be 19 99 96 bd 50 5b 68 3c 7a 32 d5 be
       -0.3209624 -0.0735342 0.014181927 -0.41640073
0002f0 d9 92 26 3e 68 ed 98 3d 2e 0b b5 3d 52 11 96 bd
       0.16266955 0.07467157 0.08840023 -0.07327522
000300 f2 5d 1e be 29 9d 1f 3e 86 20 aa 3d 1d 4e 0d 3e
       -0.15465525 0.15587296 0.083069846 0.13799329
000310 12 fc 8b 3e 16 f3 3c be 9c f1 2a 3e 2b 43 4c 3e
       0.27340752 -0.18452105 0.16693729 0.19947498
000320 c5 39 e6 bd a8 9e d2 3e f9 ae 24 be de 3a 11 3e
       -0.112414874 0.4113667 -0.16082372 0.14182612
000330 24 1a ac be 20 ee a4 3e 7e 05 c5 3e 14 e2 bf be
       -0.33613694 0.32212925 0.38480753 -0.3747717
000340 c2 15 a0 3e be 9f 8f 3c 12 39 16 3e 2f 5c 5e 3d
       0.312666 0.017532226 0.14670208 0.054287132
000350 e3 8c 1f be 36 51 6a 3e 85 1c 0a 3e 05 80 a3 3d
       -0.15581088 0.22882542 0.13487442 0.07983402
000360 e1 88 32 bf 4a 9c 2e 3e 0a 72 05 be 98 38 26 bd
       -0.6974011 0.17051807 -0.13031784 -0.040581316
000370 91 d2 1e be f3 06 14 3f 7c f5 f9 bd a3 22 5c 3e
       -0.15510012 0.57823104 -0.122050256 0.21497588
000380 0f 07 e9 3e 8f 1d 7c 3d d6 a4 b7 be ac 2b 55 3e
       0.45513198 0.061551627 -0.35867947 0.20817441
000390 32 c0 da be a4 a9 fd bc b0 13 e8 3d a9 94 aa bd
       -0.42724758 -0.03096468 0.1133188 -0.08329136
0003a0 51 b7 62 3d 55 8b 74 3e b8 db c4 3c f3 07 bf 3d
       0.055350605 0.23881276 0.024030551 0.09327688
0003b0 2e 4c 67 be 85 a1 21 be 26 00 85 3b d2 de 1f 3e
       -0.22587654 -0.15784271 0.0040588556 0.15612343
0003c0 70 a1 27 3e 73 35 82 bd 84 42 3c be eb f8 c0 3c
       0.16370177 -0.06357851 -0.18384749 0.023556193
0003d0 fc b5 9e be 82 8f ec be 8e c2 8d be 0d 7d 2d 3e
       -0.30998218 -0.46203238 -0.27687496 0.16942234
0003e0 ad 8c 15 3e e8 0c 37 bd 0e 08 19 be 91 c6 04 3e
       0.14604445 -0.044690043 -0.14944479 0.12966372
0003f0 17 99 94 bd a5 f3 a5 be c4 8b 85 3d d7 a5 00 3e
       -0.07255762 -0.3241245 0.06520799 0.12563263

fc1.bias f4 [500]
000000 d3 fc c1 3d 91 34 43 bf a8 06 ba 3c bf 64 0f 3e
       0.094720505 -0.76252085 0.022708252 0.14003275
000010 94 e4 10 3f ce 84 f6 be 74 90 0f bf 01 6c 8f bf
       0.5659878 -0.48148197 -0.5607979 -1.1204835
000020 c5 87 d2 3d 3d f6 7a bf 26 63 8a be 47 28 6a 3e
       0.10279802 -0.9803198 -0.2702877 0.22866927
000030 df 30 c4 be f2 7a 92 be 76 84 b1 3e 9d fd 56 3f
       -0.38318536 -0.28609425 0.34671372 0.83980733
000040 59 a0 9d be 2b 0c 5a 3d e9 8f 19 bf 22 aa 34 3f
       -0.30786398 0.05323426 -0.59985214 0.705721
000050 fa 7d 58 3e d0 8b d3 3d 3a 3b aa 3d 5f d4 84 3f
       0.21141806 0.103294015 0.08312078 1.037731
000060 d0 29 0b 3f 5d af 47 3e c4 98 41 be 6d 5e 26 be
       0.54360676 0.1950049 -0.18905932 -0.16246958
000070 a6 a8 34 3d f0 f5 34 be 2f 1b c3 3f 0f 9f fa be
       0.04410615 -0.17671943 1.5242671 -0.48949477
000080 95 db 81 3f 01 85 8a be 04 1c 98 3f ed e7 27 bd
       1.0145136 -0.270546 1.188355 -0.040992666
000090 11 3c 0b bf 05 14 cf bd 38 e1 3b be 27 b4 91 3e
       -0.5438853 -0.1011124 -0.18347633 0.28457758
0000a0 f0 5a 8a bf 50 1f 96 3f 75 1b 59 bf e8 41 2e be
       -1.0809002 1.1728306 -0.8480752 -0.17017329
0000b0 ea e2 48 be 44 1e 53 3f 8f 25 5f bc 54 25 76 bf
       -0.19617811 0.82468057 -0.0136197945 -0.9615071
0000c0 37 45 24 be f1 06 40 3f 70 77 ca bd ff ef ce be
       -0.16042028 0.7501059 -0.09886062 -0.40417477
0000d0 58 ad 91 bc a0 61 9f 3c 51 2a 96 3d d7 e9 b6 be
       -0.017782852 0.01945573 0.0733229 -0.3572528
0000e0 8f 89 06 bf 85 91 b2 3e e4 8f b7 3d a8 9b 8a 3e
       -0.5255365 0.34876648 0.08962992 0.2707188
0000f0 fe 02 84 be a5 ef 4a 3f a0 69 99 bd 0d 77 88 bd
       -0.25783533 0.7927192 -0.074908495 -0.06663332
000100 c2 dc 06 be fd 78 3e bf 01 56 dc 3d 7e 84 03 bf
       -0.1317015 -0.74403363 0.107585914 -0.5137404
000110 7b 8d 04 be 58 d0 a4 3e 4e 8c 23 bf b7 73 53 3f
       -0.12944596 0.32190204 -0.6388596 0.8259844
000120 05 d9 84 3f 14 e3 51 3f f5 4a 04 3f 50 18 c0 be
       1.0378729 0.8198712 0.51676875 -0.3751855
000130 3c e0 20 bd 00 b7 1d 3f c2 88 9f be 4a 81 04 bf
       -0.039276347 0.6160736 -0.31159025 -0.5175978
000140 b2 ed d6 3b 2d cf b3 3e 4d a7 35 3f 8a ed a9 3d
       0.006559097 0.35119 0.70958406 0.0829726
000150 37 63 f2 3e eb 36 55 3e 9b 96 8b 3f 01 12 2f bf
       0.4734132 0.20821731 1.0905336 -0.68386847
000160 37 f2 7c 3d 57 92 0c bf 58 92 d5 bd 6f 53 0d 3e
       0.06175443 -0.54910797 -0.104283035 0.13801359
000170 47 67 71 be ac 4d 29 bf cc 2b b3 3e 1e c7 29 3f
       -0.23574553 -0.6613414 0.34994352 0.66319454
000180 45 58 6e be cd d4 5a bf 96 30 96 be 15 93 34 3e
       -0.2327586 -0.8548096 -0.29333943 0.17634232
000190 30 60 dc 3e 9f a8 7f be 28 0f 45 be 40 15 09 be
       0.43042135 -0.24966668 -0.19244063 -0.13387012
0001a0 88 b6 cd bc ca b1 b0 be 64 de b5 3e 67 9a 5e 3e
       -0.025111452 -0.34510642 0.35521233 0.21738587
0001b0 98 bd 19 bf 92 59 12 3f 6c 6b 6a 3f 69 06 9b 3e
       -0.6005492 0.57167923 0.9157016 0.30278328
0001c0 16 10 2b 3d 52 2c 96 be 53 1e ff be 03 48 27 be
       0.041763388 -0.2933069 -0.49827823 -0.16336064
0001d0 5b 3d 2b 3e 8d 13 f0 bd 01 8f bb 3f 6c 24 21 3d
       0.16722624 -0.11722479 1.4653016 0.039341375
0001e0 bc 90 68 3d b5 ae a0 3e 16 03 93 bf 65 24 a5 3e
       0.056778654 0.3138329 -1.1485317 0.3225433
0001f0 5f d6 04 3d 3d c6 cd be 50 02 02 bf 48 77 de be
       0.032431003 -0.40190306 -0.5078478 -0.4345038
000200 18 22 40 be 80 b8 19 bd 97 cf fd 3c a4 4a 08 3f
       -0.18763006 -0.03752947 0.030982776 0.5323889
000210 ed f1 a2 be 2f 77 d4 3d 6c 78 32 3e 3b 44 3e 3f
       -0.318252 0.10374295 0.1742875 0.7432286
000220 1c fa e5 3e cd 27 58 be 7f 3c 51 be 33 8e fc bd
       0.4491738 -0.21108933 -0.20433234 -0.1233181
000230 eb cf de 3e 16 6d 49 be 33 fb d4 be bf e2 50 3e
       0.43518004 -0.19670519 -0.415979 0.20398997
000240 19 32 72 be c1 e6 e8 3e 28 3c 2c 3f 94 94 46 be
       -0.23651923 0.4548855 0.6727929 -0.19392616
000250 2c 56 50 bf 5e 20 0a bf ae 92 f9 3e bf 21 01 bf
       -0.8138149 -0.5395564 0.4874472 -0.5044212
000260 0a 20 7b be a3 2d 3e 3e cb f0 8e bf 65 e5 3d bf
       -0.2452394 0.18572097 -1.1167234 -0.74178153
000270 92 06 67 3e d8 64 65 3e 69 24 2c 3e 31 5c 3e bf
       0.225611 0.2240175 0.16810764 -0.7435942
000280 6a 98 73 bc d1 b1 13 3f 4c 29 ab be c2 0e 06 3f
       -0.014867881 0.576932 -0.33429945 0.5236627
000290 76 0b 2e bf 74 3d 5a bf 3c f3 98 bd bc 45 1f bf
       -0.6798624 -0.8525002 -0.07468268 -0.6221578
0002a0 f7 93 ef 3e a7 75 70 3f 31 12 01 bf b9 1f fd 3e
       0.46792576 0.93929523 -0.5041838 0.49438265
0002b0 3e df dc 3e e8 84 95 3e 4e 2f fa 3d 47 28 a5 3e
       0.4313907 0.29202962 0.12216054 0.32257292
0002c0 d8 82 52 be 9d 38 23 3e 44 ff 8e bf 21 2d 3a bf
       -0.20557725 0.15939565 -1.1171651 -0.7272511
0002d0 78 3c c0 bd b6 bd 92 3e 7f 40 49 be 20 5b a3 bd
       -0.093865335 0.28660363 -0.1965351 -0.07976365
0002e0 47 d7 22 3f 97 21 de 3e e4 5a 67 3f 86 d5 c4 3e
       0.6360974 0.43385002 0.90373063 0.38444155
0002f0 c0 c4 0c bf 1b 54 04 3f 3c a5 93 be e7 2d 71 bf
       -0.54987717 0.51690835 -0.28837 -0.94210666
000300 70 ec 24 3f de 58 81 bd ce 13 9e be 9c f6 d3 3e
       0.64423275 -0.06315778 -0.30874485 0.41399086
000310 09 85 ce 3b 65 01 ba bd 2a 3e 27 be 37 2c 94 3e
       0.00630248 -0.09082297 -0.16332307 0.28939983
000320 13 d3 19 3f 72 99 99 3f f7 34 44 bf 18 ba 28 3f
       0.600877 1.1999953 -0.7664332 0.65908957
000330 de cc 19 3f f1 84 82 3f 4c ee 51 3f 0b b9 40 bd
       0.6007823 1.019682 0.8200424 -0.04705147
000340 23 9d 49 bf 1a 98 90 bf a0 f3 30 3e 3f f4 38 3f
       -0.78755397 -1.1296418 0.17280436 0.7224769
000350 3c 15 17 3e 3c 82 da be 6f 0e a5 3e d8 10 29 be
       0.14754194 -0.42677486 0.32237574 -0.16510332
000360 2c 14 2d 3e da 73 0b 3d cb e6 25 3f 8a 2b 18 3e
       0.16902226 0.03404603 0.6480529 0.14860359
000370 ea 0c f7 be f2 e5 be bc d0 51 f6 be 75 0c e0 3e
       -0.4825204 -0.023303006 -0.48109293 0.43759504
000380 d4 f3 54 bf 56 70 d4 3e 7f 82 2b 3f a6 2e 82 3e
       -0.8318455 0.41491956 0.66995996 0.25426215
000390 7e c7 d1 3b cc a9 09 bd 88 f4 fb 3e 02 2f bb 3d
       0.006401955 -0.033609197 0.4921 0.091398254
0003a0 5e 54 04 bd a9 00 22 3f 21 40 54 3f a8 71 0b be
       -0.03230702 0.6328226 0.8291035 -0.13617575
0003b0 8e 71 1b 3f 57 1d 36 3c f0 e8 8f bd e7 70 6e 3f
       0.60720146 0.011115394 -0.07026851 0.93141025
0003c0 7b a6 d0 3d 73 b7 3d 3f 4b f5 5f 3e 74 a2 28 bf
       0.10188004 0.74108046 0.21870916 -0.65872884
0003d0 81 21 62 be ed 19 b0 bd 20 4c e4 bc 37 17 19 3e
       -0.22083093 -0.08598695 -0.02786833 0.14950262
0003e0 20 ae f5 be 31 26 42 3e d2 7a 13 3c b0 ed 0a bf
       -0.4798441 0.18959881 0.009001451 -0.5426893
0003f0 ce e1 1b bf 29 ac 09 3f bf 96 fd be 78 20 d7 3d
       -0.60891426 0.5377832 -0.49529073 0.1050424

fc2.weight f4 [37, 500]
000000 38 6c 5b be 00 05 48 3d 38 0f 48 3c c5 71 04 bf
       -0.21428001 0.048832893 0.01221066 -0.517361
000010 5c db e9 be e8 78 cb bd c4 7f 9f b9 e1 a3 fb bb
       -0.4567517 -0.099351704 -0.00030422036 -0.007679448
000020 05 8c 20 3e c2 b2 f9 3d e6 54 18 bd 41 81 88 3e
       0.15678413 0.121922985 -0.03719034 0.26661113
000030 d9 3b 14 bf cd 7e 29 3d 6c 04 4b bf 43 43 09 3f
       -0.5790382 0.041380692 -0.7930362 0.5361826
000040 e6 90 54 3e f2 35 17 bf 55 a8 1b be ca d2 d0 be
       0.207584 -0.5906669 -0.15200932 -0.4078582
000050 aa 15 85 3d 67 eb 7e 3d 80 a5 e3 bd ad bd e1 be
       0.06498273 0.062236216 -0.11115551 -0.44090024
000060 1c f3 4f bf 64 cf 82 be 04 96 53 3e 19 21 03 bd
       -0.8123033 -0.2554885 0.20662695 -0.032013986
000070 5f 5f 09 3e 1f fc 09 3c de b3 c1 3e af f4 31 be
       0.13415287 0.008421927 0.3783254 -0.17378496
000080 67 17 ae be fc ca ab bf a6 c9 ae bc 6b cb 6b 3e
       -0.3400223 -1.3421321 -0.021336388 0.23026817
000090 c0 ab 94 3d b7 e9 1e bf c9 e0 24 bf dd 58 fc bd
       0.07259321 -0.6207537 -0.64405495 -0.12321637
0000a0 55 d8 05 3e ad 37 fd be 11 46 21 3e 9d 12 1c 3e
       0.13070805 -0.4945654 0.15749384 0.15241475
0000b0 5c c2 14 bf 46 72 0b c0 11 8c f0 bd ee c9 5b be
       -0.5810907 -2.1788497 -0.117454655 -0.21463749
0000c0 66 c9 88 be 4f da 3e bf 5d ae 0b 3e ba 5a 59 3e
       -0.26716155 -0.7455186 0.13640733 0.21226016
0000d0 91 3a da 3d b1 6c 08 be 56 01 19 3c 68 ff 7a be
       0.10655702 -0.13322712 0.009338697 -0.24511492
0000e0 34 e3 e5 be 55 12 a0 3d 39 35 86 3e dc fd 59 be
       -0.44899905 0.078159966 0.2621248 -0.21288246
0000f0 40 56 26 3e c6 e0 be 3b c2 b4 a5 be 9c 27 46 3e
       0.1624384 0.005825135 -0.3236447 0.19351047
000100 ca c9 05 be 22 f1 9b bd ae e7 86 3b 78 b8 9b bf
       -0.13065258 -0.07614352 0.004116974 -1.216567
000110 33 bf 3e 3e f6 0d 12 be 15 cd 4d bf 16 db 15 bd
       0.18627624 -0.14263138 -0.80391055 -0.03658589
000120 51 7d 03 3e 16 c8 81 3e 31 45 74 3c b6 67 5e be
       0.12840773 0.25347966 0.014909075 -0.2171925
000130 90 93 1f 3c 5b 1c 9f be 29 38 1b bf d4 00 81 3e
       0.0097397715 -0.3107632 -0.6063257 0.25195944
000140 36 a2 8f 3b 75 f4 74 bf a2 d1 8c 3e 74 ba e9 be
       0.0043833507 -0.9568551 0.27503687 -0.45650065
000150 00 35 59 bd 9c 8e 7d 3c 8f 7d 8c be 37 55 78 bf
       -0.05302906 0.015475895 -0.27439544 -0.9700503
000160 67 13 2d be 61 88 32 3e 65 e4 67 bf 80 17 9e bf
       -0.16901933 0.17434837 -0.9058288 -1.2350922
000170 41 e0 1a bd 76 88 d3 3d af 7e 01 be 33 9e 53 3e
       -0.03781152 0.10328762 -0.12645982 0.20665817
000180 f9 82 d8 3d 01 df a7 be cd fe 40 be 57 11 b2 bf
       0.10571856 -0.32787326 -0.18847199 -1.3911542
000190 78 1b 0c bd ef 62 8e 3d 4b c6 8d bd 72 d7 dd bd
       -0.034205884 0.06952464 -0.06922587 -0.108321086
0001a0 84 ae 6e bf 4d 12 6a 3e 90 dc 25 3e d2 85 4f 3e
       -0.9323504 0.22858544 0.16197419 0.20265892
0001b0 61 17 30 be 2f ee 17 bf 51 12 6f 3e c0 a9 a2 be
       -0.17196418 -0.59347814 0.23346831 -0.31770134
0001c0 0d 0f 4b 3e f1 1a 23 bf 75 9a 31 be b2 2b 55 3e
       0.1982996 -0.63712984 -0.17344077 0.2081745
0001d0 0f ed 80 3d ed 76 08 3c 27 1c 6e bf c6 cf 34 bf
       0.06295215 0.008329135 -0.9301171 -0.7062954
0001e0 16 5d 08 bf 48 c8 13 3d 89 d5 9e bc 9f 21 43 3e
       -0.5326704 0.036079675 -0.01938893 0.19055794
0001f0 b5 4d 68 be 84 97 34 3d 84 a0 90 3e 3b 80 d5 bc
       -0.22685893 0.04408981 0.28247464 -0.026062122
000200 ec a2 b3 be 13 63 cc bc e2 1a 06 3e c4 ae 25 3e
       -0.35085237 -0.024949586 0.13096192 0.16179949
000210 79 9f 71 be 88 c3 6b be 37 5d 4a be a0 4c 86 bd
       -0.2359599 -0.23023808 -0.19762121 -0.06557584
000220 ec 96 c1 3d 83 61 56 3e 1a 73 a5 bf c6 11 a0 3c
       0.09452614 0.20935635 -1.2925751 0.019539725
000230 d2 40 b3 bd f7 52 0a bf 47 6e 28 3d a3 be 4a 3e
       -0.08752598 -0.54032844 0.041120794 0.19799285
000240 c6 c0 a4 3e 0a f1 4e 3e 8d 0f 0d bf ea 8d 9b 3d
       0.32178324 0.20209137 -0.55101854 0.07595427
000250 9a 1c ea 3d 7b 6f 64 bc 1b 05 07 3e 60 ed e1 bd
       0.114312366 -0.013942595 0.13185541 -0.11031604
000260 74 ae 8c 3e 77 17 55 bd cb ba ab 3d 8a ee b8 be
       0.27476847 -0.05202433 0.08385237 -0.3611949
000270 f1 9a 7e 3d d0 89 69 3d 0b 40 80 3d 13 16 32 3e
       0.062159482 0.057016194 0.06262215 0.17391233
000280 18 c6 26 3c a3 ee 5d 3e 07 81 c8 be 8c 7e 89 3e
       0.010179065 0.21673064 -0.3916094 0.2685436
000290 84 d8 f1 bb 13 7f 53 3c c1 2d 41 bf be 7f ef 3d
       -0.007380547 0.012908715 -0.7546044 0.11694287
0002a0 44 cf b2 3e ab 38 81 3e 9d 43 91 3d b0 c6 b4 bf
       0.34923756 0.25238547 0.07092974 -1.4123135
0002b0 e6 48 60 bf d9 4d a4 be 79 5a 73 be 24 ce 27 3d
       -0.87611234 -0.32090643 -0.23764981 0.040968075
0002c0 30 c6 09 3e 18 44 e3 be c5 97 ba bd a1 16 03 be
       0.13454509 -0.4438789 -0.09110979 -0.12801601
0002d0 bb 89 1f bd 00 84 1f be eb b2 c4 3e d7 9f 34 bd
       -0.03894971 -0.15577698 0.38417754 -0.044097748
0002e0 9f 7a be 3d ff c4 c2 3d ca ef 52 bd 93 c4 fc 3d
       0.09300732 0.0951023 -0.051498212 0.12342181
0002f0 07 86 cc bf 90 9b 94 be 3a 0b f3 be d7 42 c8 be
       -1.5978402 -0.29024935 -0.47469503 -0.39113495
000300 41 54 b4 bd a7 c0 47 3b 3a 8d 2d 3e 7d 5b 93 be
       -0.08805133 0.003047982 0.16948405 -0.28780738
000310 51 cb 1d 3e 19 5c 85 3e c6 46 55 3c cd 8b a3 3e
       0.1540959 0.26046827 0.013017362 0.31942597
000320 b4 24 5a 3e 57 54 98 be 23 80 05 bc 52 16 bf be
       0.21303064 -0.29751846 -0.008148226 -0.37321717
000330 3f e2 e0 bd 3b 6b 05 3d b3 03 c8 3e 17 51 b4 bc
       -0.10980653 0.032572966 0.39065322 -0.022011323
000340 13 45 a4 3d 07 13 e1 be f2 d1 c9 be 9d c0 cb 3c
       0.08020987 -0.4395983 -0.39417988 0.024872119
000350 38 7d ab 3d 0a 12 25 3e e9 55 dd be 56 c3 0a bf
       0.08373493 0.16120163 -0.43229607 -0.5420431
000360 75 e2 3a 3e 4a 2f 2a 3e 17 0f dd 3e 3c 19 1c 3e
       0.18250449 0.16619602 0.43175575 0.15244001
000370 aa db b8 be d8 35 8b be 49 fd 3b 3e d5 2d cc 3e
       -0.3610509 -0.27189517 0.1835834 0.39878717
000380 64 1d e1 bd e6 a6 26 be d7 c7 2b bc cd 4f 3a 3d
       -0.10991934 -0.16274604 -0.010484657 0.04548626
000390 7a 5b 81 bd 05 2e c9 3d b4 7b cb bc fd ee 03 be
       -0.06316276 0.09823231 -0.02483926 -0.12884136
0003a0 1e 45 82 bd fb 25 8a be 29 80 29 3e 11 85 92 3d
       -0.06360839 -0.26982102 0.16552795 0.07154287
0003b0 f3 81 a0 be de d6 3a be 52 22 ec 3c 2a 1e b9 3e
       -0.31349143 -0.18246028 0.028824959 0.36155826
0003c0 5a f0 97 be f1 61 40 3e 57 c1 8a 3e 38 bb 95 bf
       -0.2967556 0.18787362 0.27100632 -1.169776
0003d0 fd 11 02 3e 25 b2 da be 27 b1 fd bb 62 22 44 be
       0.12702174 -0.42714038 -0.0077420655 -0.19153741
0003e0 35 04 89 bf 60 1d 81 3e e4 0f 54 3e d6 98 57 3d
       -1.0704409 0.25217724 0.20709187 0.05263599
0003f0 bc 62 93 bf b8 7e b8 3e 15 8e bc 3b 57 2a 9d 3e
       -1.1514506 0.3603418 0.005754242 0.30696365

fc2.bias f4 [37]
000000 3c 15 9b 3e 40 04 7d 3f 30 f5 5d be c7 ef 0b bf
       0.30289638 0.9883461 -0.21675563 -0.54662746
000010 ad ee 57 3e e2 13 9d be 99 e4 47 be d1 fa f7 be
       0.21087141 -0.30679232 -0.19520797 -0.48433545
000020 0e eb 3c bd 75 0c 03 bd 06 55 07 be df 97 80 be
       -0.046122603 -0.0319943 -0.13216028 -0.25115868
000030 d3 dd 35 3e 35 f8 42 bd b1 03 14 be 6b 0b 0c 3f
       0.177604 -0.04759999 -0.14454533 0.5470492
000040 29 3e 5d 3e 25 36 9b 3e f0 d0 22 3f fa 71 e6 3e
       0.21605743 0.30314746 0.63600063 0.45008832
000050 c8 23 d9 3d be 9b 00 3f d4 65 79 bd eb 7c 16 bc
       0.10602528 0.50237644 -0.060888126 -0.009185056
000060 06 a2 a7 be 1f d9 70 3d 46 e7 f9 be db eb 45 be
       -0.32740802 0.058800813 -0.4880926 -0.19328253
000070 4c 56 ae be 7e 96 59 bf e6 47 d4 bd 2d 27 84 be
       -0.34050214 -0.8499526 -0.10365276 -0.2581114
000080 62 ae 1d bd e5 46 29 bd 3d b9 4d 3e dc 7f 13 3f
       -0.038496383 -0.041327376 0.20090194 0.5761697
000090 d5 b5 5a be
       -0.21358426
